…
model.add(Conv2D(filters=16, kernel_size=(3,3), activation='relu', padding = 'same'))
model.add(MaxPooling2D(pool_size=(2, 2)))
model.add(Dropout(0.2))


model.add(Flatten())

model.add(Dense(256))
model.add(Activation('relu'))
model.add(Dropout(0.25))

model.add(Dense(len(future_num)))
model.add(Activation('softmax'))

model.compile(loss='categorical_crossentropy',optimizer='adam',metrics=['accuracy'])

model.summary()
Model: "sequential"
_________________________________________________________________
Layer (type)                 Output Shape              Param #   
=================================================================
conv2d (Conv2D)              (None, 224, 224, 32)      896       
_________________________________________________________________
max_pooling2d (MaxPooling2D) (None, 112, 112, 32)      0         
_________________________________________________________________
dropout (Dropout)            (None, 112, 112, 32)      0         
_________________________________________________________________
conv2d_1 (Conv2D)            (None, 112, 112, 64)      18496     
_________________________________________________________________
max_pooling2d_1 (MaxPooling2 (None, 56, 56, 64)        0         
_________________________________________________________________
dropout_1 (Dropout)          (None, 56, 56, 64)        0         
_________________________________________________________________
conv2d_2 (Conv2D)            (None, 56, 56, 128)       73856     
_________________________________________________________________
max_pooling2d_2 (MaxPooling2 (None, 28, 28, 128)       0         
_________________________________________________________________
dropout_2 (Dropout)          (None, 28, 28, 128)       0         
_________________________________________________________________
conv2d_3 (Conv2D)            (None, 28, 28, 64)        73792     
_________________________________________________________________
max_pooling2d_3 (MaxPooling2 (None, 14, 14, 64)        0         
_________________________________________________________________
dropout_3 (Dropout)          (None, 14, 14, 64)        0         
_________________________________________________________________
conv2d_4 (Conv2D)            (None, 14, 14, 32)        18464     
_________________________________________________________________
max_pooling2d_4 (MaxPooling2 (None, 7, 7, 32)          0         
_________________________________________________________________
dropout_4 (Dropout)          (None, 7, 7, 32)          0         
_________________________________________________________________
conv2d_5 (Conv2D)            (None, 7, 7, 16)          4624      
_________________________________________________________________
max_pooling2d_5 (MaxPooling2 (None, 3, 3, 16)          0         
_________________________________________________________________
dropout_5 (Dropout)          (None, 3, 3, 16)          0         
_________________________________________________________________
flatten (Flatten)            (None, 144)               0         
_________________________________________________________________
dense (Dense)                (None, 256)               37120     
_________________________________________________________________
activation (Activation)      (None, 256)               0         
_________________________________________________________________
dropout_6 (Dropout)          (None, 256)               0         
_________________________________________________________________
dense_1 (Dense)              (None, 3)                 771       
_________________________________________________________________
activation_1 (Activation)    (None, 3)                 0         
=================================================================
Total params: 228,019
Trainable params: 228,019
Non-trainable params: 0
_________________________________________________________________
from sklearn.model_selection import train_test_split
train_set , test_set = train_test_split(df,test_size=0.2,random_state=17)
train_set
fruit	path	label
1783	Chickoo	D:\ML Dataset/Chickoo\Chickoo (1160).jpg	0
…
